works/work2/quant_model.tflite (tflite, 679504 bytes, 107 tensors)

sequential_12/sequential_11/dense_Dense6/MatMul f4 [2, 100]
0	0x3da7d93d	0.08195732
1	0x3bf2113b	0.007387308
2	0x3d7fe334	0.062472537
3	0xbdae82e2	-0.08521058
4	0xbdd2ff95	-0.10302655
5	0x3c951665	0.018199155
6	0x3dcbca29	0.09950668
7	0x3e1541fb	0.14575951
8	0x3d88eb8e	0.066855535
9	0x3dceb0cc	0.10092315
10	0x3e33bbed	0.17552157
11	0x3d59a409	0.05313495
12	0xbd028f60	-0.031875014
13	0x3e0ef209	0.13959517
14	0xbd22127e	-0.039568417
15	0xbdfd629e	-0.12372325
16	0xbca9f084	-0.02074457
17	0xbdabe66c	-0.08393559
18	0xbd0c27b5	-0.034217555
19	0xbe27e005	-0.1639405
20	0xbb8ebfe1	-0.00435637
21	0x3d5d3282	0.054003246
22	0xbdbe6369	-0.09296305
23	0xbd0365c5	-0.032079477
24	0x3e1b1e78	0.15148342
25	0xbd7b4d21	-0.061352853
26	0x3e1d3f9e	0.153563
27	0xbd9347a9	-0.071914025
28	0xbe49fae1	-0.19724609
29	0xbe372eae	-0.178889
30	0x3da0368a	0.078229025
31	0x3dbaec94	0.09127155
32	0x3dec23b1	0.11530245
33	0x3df39b50	0.11894858
34	0x3dce6182	0.10077192
35	0xbe30b967	-0.17258225
36	0xbb796fff	-0.003806114
37	0x3cf6388f	0.030056266
38	0x3d8f16cd	0.06986771
39	0xbd4549fb	-0.048166256
40	0xbdc748fc	-0.097307175
41	0xbd187522	-0.03722108
42	0xbcf3912c	-0.02973231
43	0xbe4f48a1	-0.2024255
44	0xbdbe8b38	-0.093038976
45	0xbe0784fe	-0.13234326
46	0x3d6e16d8	0.058127254
47	0xbd22ecdf	-0.03977668
48	0xbb051ad0	-0.002031017
49	0x3e3d840b	0.18507402
50	0x3bcf1bda	0.006320459
51	0x3e12676c	0.14297265
52	0x3d6187ea	0.05506126
53	0x3dcdf3a6	0.10056238
54	0xbdc7594d	-0.0973383
55	0xbdb962e6	-0.090520665
56	0x3b80a797	0.0039262283
57	0x3de139a2	0.10997321
58	0xbd1943e6	-0.03741827
59	0x3d56e818	0.052467436
60	0x3d86f65d	0.06589959
61	0x3d96d0ac	0.0736402
62	0xbca74730	-0.020419687
63	0x3e352b0f	0.17692207
64	0xbdc96986	-0.0983458
65	0x3caf3515	0.021387616
66	0x3e4f475b	0.20242064
67	0x3e2b7a63	0.16745906
68	0xbdc1b7d4	-0.094588906
69	0xbe42122e	-0.18952248
70	0x3d26db28	0.040736347
71	0x3cc0f7f2	0.02355573
72	0xbc3fdd6a	-0.011710504
73	0xbc9fdce9	-0.019514518
74	0xbdc96a2f	-0.09834706
75	0x3d8cfb0b	0.0688382
76	0xbca4eed8	-0.02013342
77	0x39ffabfa	0.00048765523
78	0x3e463254	0.19355136
79	0xbc63f1f5	-0.0139126675
80	0x3d5f33ed	0.05449288
81	0xbd83bfb3	-0.06433048
82	0x3e0ddbf2	0.13853434
83	0x3d54da60	0.05196607
84	0xbe6872a8	-0.22699988
85	0xbe08482e	-0.13308784
86	0xbe090940	-0.13382435
87	0x3e4f646d	0.20253153
88	0x3e6cfe23	0.2314382
89	0xbd9e20b7	-0.077210836
90	0xbe3884ef	-0.1801946
91	0x3d4b3bbe	0.04961752
92	0x3d978106	0.07397656
93	0xbe35ecd6	-0.17766127
94	0x3d8132c2	0.063085094
95	0xbe300f17	-0.17193256
96	0xbd476bd6	-0.048686825
97	0x3d9a1174	0.0752286
98	0x3c01dafe	0.007925747
99	0x3dd049a0	0.10170293
100	0xbd9c5089	-0.07632548
101	0x3df97c1a	0.121818736
102	0xbd2efbe3	-0.042720687
103	0x3d73a006	0.059478782
104	0xbc638184	-0.013885859
105	0xbd1633e9	-0.0366706
106	0xbdb0ceb3	-0.08633175
107	0x3e3406db	0.1758074
108	0xbe068ac0	-0.13138866
109	0x3e47dcb7	0.1951779
110	0x3d1b406d	0.037903238
111	0xbe0319cf	-0.12802814
112	0x3b3b276f	0.002855744
113	0xbdca2251	-0.098698266
114	0x3e082548	0.13295472
115	0x3d94a65e	0.072582945
116	0xbdf18165	-0.11792258
117	0xb88b3633	-6.638132e-05
118	0x3dc3c540	0.09559107
119	0xbd45092b	-0.048104446
120	0x3e1533a1	0.14570476
121	0xbd68c8d3	-0.056832146
122	0xbdecf337	-0.11569827
123	0x3df60e27	0.12014418
124	0xbe5c2eb1	-0.21502186
125	0xbab64592	-0.0013906232
126	0xbde465df	-0.11152243
127	0xbd1b03de	-0.037845485
128	0x3da176c2	0.078839794
129	0x3d1c5c9f	0.038174268
130	0x3d8b0bbf	0.0678935
131	0xbe4daf07	-0.20086299
132	0xbd0be498	-0.03415355
133	0xbddf4776	-0.10902302
134	0xbd436cec	-0.047711298
135	0x3e0abddb	0.13548987
136	0x3dd3b35e	0.10336946
137	0xbde2df00	-0.1107769
138	0x3e02c0d8	0.12768877
139	0xbdfeec77	-0.12447446
140	0xbc5e3179	-0.0135616
141	0xbc959cdf	-0.018263279
142	0x3d616605	0.055028934
143	0x3ddd42a3	0.108037256
144	0xbe046209	-0.12928022
145	0x3e557da9	0.20848717
146	0x3df8fdad	0.1215776
147	0xbe12fd05	-0.14354332
148	0xbe21d516	-0.15803942
149	0xbd97c603	-0.074108146
150	0x3daa4dc0	0.08315611
151	0xbe4d3074	-0.20038015
152	0x3e0f44fc	0.13991159
153	0xbd153a05	-0.036432285
154	0x3e0a00fd	0.1347694
155	0x3ea65910	0.32489824
156	0xbdcf1354	-0.101111084
157	0xbb77c5bb	-0.0037807066
158	0xbda3eb79	-0.08003897
159	0x3ce2f6f1	0.027705641
160	0xbdaebac4	-0.085317165
161	0x3e2c09ff	0.16800688
162	0x3d82bffb	0.063842736
163	0xbe7240f6	-0.23657593
164	0x3e090aa9	0.13382973
165	0x3e045f50	0.12926984
166	0x3ca4a519	0.020098256
167	0x3d0eca06	0.034860633
168	0x3e5e71a2	0.21723035
169	0x3d355a05	0.044275302
170	0x3dad75c6	0.08469729
171	0xbd3e787c	-0.04650162
172	0xbe26deb8	-0.16295898
173	0x3d83def7	0.064390115
174	0x3d733509	0.05937675
175	0xbdf3a195	-0.11896054
176	0xbcea4e42	-0.02860177
177	0xbd5782e6	-0.05261507
178	0xbe582148	-0.21106446
179	0xbdfbc774	-0.12293902
180	0x3e447fb6	0.19189343
181	0x3dfb29da	0.12263842
182	0xbdf9babe	-0.12193821
183	0xbe308c4c	-0.17241019
184	0xbd5d7144	-0.054063097
185	0x3de82a91	0.11336244
186	0x3c7be267	0.015373803
187	0xbc8a2548	-0.01686348
188	0xbcf38cf7	-0.029730303
189	0x3de30392	0.11084665
190	0xbda9c6b4	-0.08289853
191	0xbd8e303e	-0.06942795
192	0xbce41690	-0.02784279
193	0x3c8658ef	0.016399829
194	0x3d129b30	0.03579253
195	0x3d1a7291	0.037706915
196	0x3dbc4667	0.09193116
197	0xbdb0e83c	-0.08638045
198	0xbe737446	-0.23774824
199	0xbb036743	-0.0020050562

sequential_12/sequential_11/dense_Dense5/BiasAdd/ReadVariableOp f4 [100]
0	0x3c3b1880	0.0114194155
1	0x3ad8efa7	0.0016550914
2	0x3aafd25a	0.001341413
3	0x3b8fef90	0.0043925717
4	0x3bb7201d	0.005588545
5	0xbba739a0	-0.005103305
6	0xbbabc3d9	-0.0052418527
7	0xbaa7b6ad	-0.001279553
8	0x3bbb6d49	0.005719815
9	0xbc2aae32	-0.010417508
10	0x3be3140d	0.0069298805
11	0x3bf0ad31	0.007344865
12	0xbbdbbbd3	-0.00670574
13	0x3be89052	0.0070972824
14	0x3bb76277	0.0055964547
15	0x3bb24f51	0.005441584
16	0xbbc67a53	-0.0060570627
17	0x3afc9117	0.0019269314
18	0x3b7075d8	0.0036691334
19	0x3bbd1e87	0.0057714614
20	0x3ba98df2	0.005174392
21	0x3bf28070	0.007400565
22	0xbb7859bf	-0.003789529
23	0x00000000	0.0
24	0x3b76b1ab	0.003764252
25	0xbbafc71b	-0.0053643114
26	0x3ba029a8	0.0048877783
27	0xbbe1fe1e	-0.006896748
28	0x3b367dfb	0.0027846086
29	0x3b8a1fdc	0.0042152237
30	0xbbb91d77	-0.0056492644
31	0x3b9b7e09	0.004745249
32	0x3b42148c	0.0029614298
33	0x3bdde2e5	0.0067714327
34	0x3b33ad80	0.0027416646
35	0x3b2d6018	0.0026454981
36	0x3b31a40f	0.0027105843
37	0x3bc7725b	0.0060866303
38	0xbbad6ed9	-0.005292755
39	0x3bb4b804	0.0055151004
40	0xbbede5d1	-0.0072600623
41	0x00000000	0.0
42	0x3ada7b71	0.0016668868
43	0x3b02ccbb	0.0019958455
44	0xbc15f2b3	-0.009152102
45	0x3b883459	0.004156631
46	0x3a5d6ca7	0.00084466714
47	0xbba518c7	-0.005038354
48	0x3a10b661	0.00055203406
49	0x3b8ce711	0.004300006
50	0x3ac6f8ec	0.0015180386
51	0x3bf0d16f	0.007349185
52	0xbbf9e031	-0.0076256027
53	0x3aec6349	0.001803496
54	0x3ba08d62	0.0048996666
55	0x3b800c5a	0.0039077224
56	0x3b87ca9d	0.0041440264
57	0xb9b0f1bd	-0.00033749445
58	0xbb2b5beb	-0.0026147317
59	0x36227524	2.4208066e-06
60	0x3ad181ea	0.0015984152
61	0x3a39562a	0.00070700294
62	0x3a3d25c1	0.00072154036
63	0x3c5bd764	0.013418052
64	0xbbce360a	-0.006293063
65	0x3b037811	0.0020060579
66	0x3bafd73e	0.005366235
67	0x3c177f09	0.009246596
68	0x3b3c0e1c	0.0028694933
69	0x3b15c18c	0.0022850959
70	0xbc1f5306	-0.009724384
71	0x3bd9f94c	0.006652033
72	0x3b1f930a	0.0024349117
73	0xbbb4d51c	-0.0055185687
74	0x3b30849b	0.0026934508
75	0x3b86c501	0.00411284
76	0xbbaa7cb2	-0.005202853
77	0xbbba6b4b	-0.00568906
78	0x3bb4cf52	0.0055178786
79	0x3be09b4c	0.0068544503
80	0xbbf76588	-0.0075499453
81	0x00000000	0.0
82	0x3b81fee9	0.0039671552
83	0x3c018781	0.007905842
84	0x3b029b43	0.001992897
85	0x00000000	0.0
86	0x3b1bd45b	0.0023777697
87	0x3bd54d26	0.006509441
88	0x3b9f813f	0.0048677023
89	0xbbc09625	-0.0058772736
90	0x3b5c19e2	0.0033584763
91	0x3bcb5d32	0.006206178
92	0x3bff7442	0.0077958414
93	0x3ba068b0	0.004895292
94	0xbbbf1e83	-0.0058324947
95	0xbb42f134	-0.002974582
96	0x3aeaea66	0.0017922639
97	0x3bfc190d	0.007693416
98	0x3b721671	0.0036939646
99	0x3c197bc7	0.00936789

sequential_12/sequential_9/model3/block_3_project/Conv2D f4 [16, 1, 1, 48]
0	0x3e77bbda	0.24192753
1	0x3f0f4bc0	0.5597496
2	0x3e9a664e	0.30156177
3	0xbf9197eb	-1.1374487
4	0xbd8514ee	-0.06498133
5	0x3eb75d4d	0.3581337
6	0xbf1e271b	-0.6177842
7	0x3eed806b	0.46387038
8	0xbedb231b	-0.4280022
9	0x3c896e90	0.016776353
10	0xbe75fb15	-0.24021561
11	0x3ef93024	0.4866954
12	0x3eda2786	0.4260828
13	0x3f97e724	1.1867414
14	0x3ec6ea42	0.388506
15	0x3c9bec53	0.019033587
16	0x3f8248a3	1.0178417
17	0xbf147f9a	-0.58007205
18	0xbfa1306a	-1.25929
19	0x3edafc78	0.42770743
20	0x3fae0089	1.3593913
21	0xbf2e5814	-0.68103147
22	0x40789a47	3.8844163
23	0xbf09e5dd	-0.5386637
24	0xbf2d8b62	-0.67790806
25	0x3d926632	0.071483985
26	0xbe069a47	-0.1314479
27	0xbefd24aa	-0.49442035
28	0x3f188208	0.5957341
29	0x3f0ad824	0.54236054
30	0xbf18e0a5	-0.5971778
31	0x3dfea6bb	0.12434145
32	0xbd9c24c4	-0.076242
33	0x3e368eb0	0.17827868
34	0x40731866	3.7983642
35	0xbf12864c	-0.5723617
36	0x401efb0d	2.484073
37	0xbe9b4674	-0.3032719
38	0x3f234be9	0.63787705
39	0x3fb9920b	1.4497694
40	0x3defe930	0.11714399
41	0x3cc28941	0.023747088
42	0xbe248b6e	-0.16068813
43	0xbe9d00f3	-0.30664787
44	0x3eeedb3e	0.46651644
45	0x3f49ec35	0.7887605
46	0xbf694325	-0.9111808
47	0xbf117802	-0.5682374
48	0x3eeeb041	0.46618846
49	0xbe39f941	-0.18161489
50	0x3e81cf41	0.25353435
51	0xbf998a2d	-1.1995293
52	0x3f07e4ed	0.5308369
53	0x3e7a4a88	0.24442494
54	0x3d21282f	0.039344963
55	0x3d74115c	0.059586868
56	0xbbc3d80f	-0.005976684
57	0xbe01ea45	-0.12687023
58	0x3f1f993a	0.6234318
59	0x408ca593	4.3952117
60	0x402fac27	2.7448823
61	0xbec05b3b	-0.37569603
62	0x3e1c65dc	0.15273231
63	0x3d45e98b	0.048318427
64	0xbf0f2e37	-0.55929893
65	0xbd03c753	-0.032172512
66	0x3e14912c	0.14508504
67	0x3e2f0738	0.17092597
68	0xbf0c42a1	-0.5478917
69	0xbfc53942	-1.5408099
70	0xbf362486	-0.7114948
71	0x3ed84661	0.42241195
72	0x3e2dec10	0.16984582
73	0x3d2f36e4	0.042776957
74	0x3f085388	0.5325246
75	0x3f22fd97	0.636682
76	0xbf756307	-0.9585423
77	0xbe7931f2	-0.24335459
78	0xbf061ace	-0.5238465
79	0xc06bf4d0	-3.6868172
80	0x3ea5d674	0.32390177
81	0x3e0a3697	0.13497387
82	0xbed5e8b4	-0.417791
83	0xbf078d23	-0.5294973
84	0x3ebf601d	0.37378016
85	0x406a7a03	3.663697
86	0xbf039bbc	-0.51409507
87	0xbf3498c3	-0.70545596
88	0x3f280dd1	0.6564608
89	0x3e56fea6	0.20995578
90	0x3e011dd4	0.12609035
91	0x3eadc072	0.33935887
92	0xbe300d48	-0.17192566
93	0x3e965f7c	0.29369724
94	0x3d99ebd1	0.075156815
95	0xbf4fff78	-0.8124919
96	0xbeda176f	-0.42596003
97	0x3e6545dc	0.2238993
98	0x3faa60bb	1.331077
99	0x3f36ac85	0.71356994
100	0x3f4778dd	0.779188
101	0x3ea70f91	0.32629064
102	0x401888e5	2.3833554
103	0x3f847045	1.0346762
104	0xc013680a	-2.303225
105	0xbfa21007	-1.2661141
106	0x3fbc1200	1.4692993
107	0x3e8d5933	0.27607116
108	0x3fc071f1	1.5034772
109	0xbf8e442b	-1.1114553
110	0x3fad185b	1.3523058
111	0x3fafcd41	1.3734514
112	0xbf35252c	-0.70759845
113	0xbf7ce0d5	-0.98780566
114	0x404035b2	3.0032773
115	0x3f68da55	0.9095815
116	0xbf0a865a	-0.54111254
117	0x3f4d0169	0.80080277
118	0x3f453fd9	0.7705055
119	0x3e2b4a71	0.16727616
120	0xbe935c04	-0.2878114
121	0x3f62964a	0.8851057
122	0x3f9781d0	1.1836491
123	0x3f1b7269	0.6072145
124	0xbf2865e3	-0.65780467
125	0xbec6f82c	-0.38861215
126	0xbfc097af	-1.504629
127	0x3eedaf14	0.46422637
128	0xbfe7a79e	-1.8098028
129	0xbf485e52	-0.7826892
130	0x3d9afb1e	0.07567428
131	0xbfa9c882	-1.3264315
132	0x3f237899	0.6385589
133	0xbf592020	-0.84814644
134	0xbf7ff5ed	-0.9998463
135	0x3f38d577	0.7220072
136	0xbf95daf9	-1.170745
137	0xbf686bb5	-0.9078935
138	0x3fa27d1b	1.2694429
139	0x3fc4e342	1.5381854
140	0xbf9a853e	-1.2071912
141	0xbfc4ccf6	-1.5375049
142	0xbfe4e59e	-1.7882574
143	0xbf1ab063	-0.60425395
144	0xbefb9aee	-0.4914164
145	0x403c4d5a	2.9422212
146	0x3e88c9ad	0.26716366
147	0x3f5f8116	0.87306345
148	0xbf662572	-0.89900887
149	0x3e920205	0.28517166
150	0x3e404612	0.1877673
151	0xbed87275	-0.42274824
152	0x3cc1157e	0.023569819
153	0x3b5cb086	0.0033674552
154	0x3e8d5132	0.2760101
155	0x3ea14636	0.3149888
156	0x3f61cde6	0.882048
157	0x3fda0c90	1.7035084
158	0x3f0b12b5	0.5432542
159	0x3e38b842	0.18039039
160	0x3feaa6a4	1.8332105
161	0x3fb9a304	1.4502873
162	0xbe85f24a	-0.26161414
163	0x3f773de6	0.96578825
164	0xc0014599	-2.019873
165	0xbf1ad277	-0.60477394
166	0x3f0a9887	0.5413899
167	0xbfb9b5a5	-1.4508559
168	0xbd84719c	-0.06466982
169	0xbef0b9b1	-0.4701667
170	0x3f0b45ff	0.5440368
171	0x3fac4372	1.3458083
172	0xbff86170	-1.9404736
173	0x3fc9172d	1.5710198
174	0x400a662a	2.1624856
175	0x3e80cd11	0.25156453
176	0xbf591c00	-0.8480835
177	0x3ea073a3	0.31338224
178	0xbeb10bda	-0.34579355
179	0x3fed5c4f	1.8543795
180	0x3e66646c	0.22499245
181	0xbe0e98ac	-0.13925427
182	0x3f65c3f0	0.897521
183	0xbfeb65df	-1.8390464
184	0x3f726a8f	0.94693846
185	0x3fa86b27	1.31577
186	0x3e89bf00	0.26903534
187	0x3ee4b1ff	0.4466705
188	0x3f7e1fc5	0.99267226
189	0x3e77ff49	0.24218477
190	0xbee43887	-0.44574377
191	0x3fbc4f47	1.4711694
192	0x3eded6b5	0.43523183
193	0x3fdbfa6c	1.7185798
194	0xbe07808d	-0.13232632
195	0xc03355d8	-2.8021145
196	0x3ee1c16c	0.44092882
197	0x3e25ddcd	0.16197892
198	0xbd047994	-0.03234251
199	0xbd2bfe4a	-0.041990556
200	0x3dbe8d58	0.09304303
201	0xbf54871b	-0.83018655
202	0x3f2e8cc9	0.6818357
203	0xbf66ae1b	-0.90109414
204	0x3e206eaf	0.15667222
205	0x3f36117f	0.71120447
206	0xbe4ab772	-0.19796541
207	0xbf4d2f04	-0.80149865
208	0x3f3a5128	0.72780085
209	0x3f8edc60	1.1161003
210	0x3e6ee936	0.2333115
211	0x3db48afd	0.088155724
212	0x40553335	3.3312504
213	0x3fa77610	1.3082905
214	0x3f55a258	0.8345084
215	0xbeebbbd1	-0.4604173
216	0x3eb54caa	0.35410053
217	0x3f461413	0.7737438
218	0x3e55276a	0.20815817
219	0xc073daf8	-3.8102398
220	0x40519586	3.2747512
221	0xbec0bf9b	-0.37646183
222	0x3eaa33b5	0.33242574
223	0xbe7e756b	-0.24849479
224	0xbf0b58ad	-0.54432184
225	0xbe1dd676	-0.15413842
226	0xbffb47b8	-1.9631262
227	0x3e5db056	0.21649298
228	0x3d399c75	0.045315225
229	0xbdd96a57	-0.10615986
230	0x3e61128c	0.21979731
231	0xbf91fff4	-1.1406236
232	0x3ff082f1	1.878996
233	0x3eb0d074	0.34534037
234	0x3fbcfe4d	1.4765106
235	0x3fca36d5	1.5797983
236	0xbd4f6635	-0.05063458
237	0xbed69a4a	-0.41914588
238	0xbedda652	-0.43290955
239	0xbdb703e1	-0.08936287
240	0xbdb06fb0	-0.08615053
241	0xc00d016d	-2.203212
242	0xbdec69c2	-0.11543609
243	0x3e904bb8	0.2818277
244	0xbf494b63	-0.78630656
245	0xbe2c9b78	-0.16856182
246	0x3e020628	0.12697661
247	0xbdf6cc0b	-0.12050637
248	0x3f164003	0.58691424
249	0xbec43bf7	-0.38327
250	0x3efcbd3c	0.49363124
251	0x3caa9aed	0.020825827
252	0x3eec1724	0.46111405
253	0x3f19ed63	0.6012785
254	0x3f8e8f00	1.113739
255	0xbf130091	-0.5742274

sequential_12/sequential_9/model3/block_3_expand/Conv2D f4 [48, 1, 1, 8]
0	0x3b4be052	0.0031109047
1	0xbd0363d7	-0.032077637
2	0xbd8e1af4	-0.06938735
3	0x3dfba4d2	0.12287296
4	0x3c486725	0.012231623
5	0xbd4d9153	-0.05018742
6	0x3bc4c2fb	0.006004689
7	0x3a98007a	0.0011596822
8	0xbae29658	-0.0017287238
9	0x3e092bb4	0.13395578
10	0xbd94ba31	-0.07262076
11	0xbd534194	-0.051576212
12	0x3cb769af	0.022389261
13	0xbd4c0d07	-0.04981711
14	0xba7ae8cb	-0.0009571432
15	0xbd31b219	-0.043382738
16	0xbe2357ed	-0.1595151
17	0x3c96ccd3	0.018408215
18	0x3d23d082	0.03999377
19	0xbd799abd	-0.060938586
20	0x3e0e6bb8	0.13908279
21	0x3c8ed4d0	0.017435461
22	0xbc050cdc	-0.008120742
23	0x3c80f247	0.015740527
24	0xbb27f506	-0.0025628223
25	0x3c290b18	0.010317586
26	0xbc838735	-0.016055683
27	0xbcc2e457	-0.023790522
28	0xbca152de	-0.019692834
29	0xbd20d9b0	-0.039270103
30	0x3c4a845b	0.012360658
31	0x3dc9218d	0.098208524
32	0x3dd8bb5a	0.105826095
33	0x3c19e1fd	0.009392259
34	0xbc59d9b9	-0.013296538
35	0x3c1fce05	0.009753709
36	0xbd40c738	-0.04706499
37	0xbc9dd5dd	-0.019267017
38	0x3985f64e	0.00025551248
39	0xbbefbcb7	-0.0073161977
40	0xbd598641	-0.05310655
41	0x3cc481e3	0.023987716
42	0xbd7ea693	-0.062170576
43	0x3afe014d	0.001937905
44	0x3e2d5018	0.16925085
45	0xbd8d319d	-0.068942286
46	0xbe689011	-0.22711207
47	0x3e2e34f0	0.17012382
48	0x3c006770	0.007837161
49	0xbc17001d	-0.009216336
50	0xbcf8f3d0	-0.030389696
51	0xbc5dc57f	-0.013535856
52	0xbd61116d	-0.05494826
53	0x3c6e201a	0.014534021
54	0xbdaa4d93	-0.08315577
55	0xbd856587	-0.065135054
56	0xbcc74119	-0.024323033
57	0x3be0e014	0.0068626497
58	0xbd3312b2	-0.043719
59	0xbbd6aa01	-0.0065510278
60	0x3daa2dd8	0.08309525
61	0xbc821e3f	-0.015883563
62	0xbde9d0cd	-0.11416779
63	0x3d9651a2	0.07339789
64	0x3cb303b8	0.02185236
65	0xba97d590	-0.0011584032
66	0xbc50e77c	-0.012750503
67	0xbc7179e4	-0.014738534
68	0xbd4f6126	-0.050629757
69	0x3ceb69f0	0.028737038
70	0x3db974af	0.09055459
71	0xbdaa5a34	-0.08317986
72	0x3ca1daee	0.019757714
73	0xbce4296f	-0.027851788
74	0x3c40a3dd	0.011757818
75	0x3ca5240a	0.020158786
76	0xbdf050b3	-0.11734142
77	0x3d10f65f	0.035391208
78	0xbe11c68b	-0.14235894
79	0xbe0cb02b	-0.13739078
80	0xbd48fc7a	-0.049068905
81	0x3b7e18aa	0.0038772025
82	0x3bb62085	0.005558076
83	0xbc1ba698	-0.009500168
84	0xbd8ec616	-0.06971376
85	0x3b9adc62	0.0047259787
86	0x3bdd332f	0.0067504863
87	0xbb4d13e0	-0.0031292364
88	0x3dbd73c0	0.09250593
89	0xbc0043df	-0.007828682
90	0xbc2fe106	-0.010734802
91	0x3c6529f3	0.013987052
92	0x3d1d3ea2	0.03838981
93	0x3b8f2872	0.004368835
94	0xbb951208	-0.0045492686
95	0x3caeb7aa	0.021327812
96	0xbd574a52	-0.05256111
97	0x3ac823b4	0.001526943
98	0xbb70d16e	-0.0036745924
99	0xbafd599d	-0.0019329075
100	0xbdaa28d7	-0.08308571
101	0xbc21d383	-0.0098770885
102	0x3c0a9fd0	0.008460954
103	0xbca9db3b	-0.02073442
104	0xbb8558ff	-0.004069447
105	0xbd5ea5bc	-0.054357275
106	0x3c2ec995	0.010668178
107	0xbc9e8733	-0.019351577
108	0xbc5bdd1d	-0.013419417
109	0xbc1dd14e	-0.009632422
110	0xb962f717	-0.00021645088
111	0x3c0382d4	0.008026797
112	0xbb50e707	-0.0031875984
113	0x3d2e6264	0.0425743
114	0xbcd0b43e	-0.025476571
115	0xba0d0b56	-0.00053804123
116	0x3b845615	0.004038582
117	0x3c1bc477	0.00950729
118	0xb9b18b40	-0.0003386382
119	0xbb14e759	-0.0022720902
120	0x3d2bf2d8	0.04197964
121	0xbb8797f8	-0.004137989
122	0x3d346d59	0.044049595
123	0x3ce54cf1	0.02799079
124	0xbdce0558	-0.10059613
125	0x3d893b00	0.067007065
126	0x3e1aa751	0.15102889
127	0xbe1877c9	-0.14889444
128	0x3b49268d	0.0030693144
129	0xbdd69169	-0.104769535
130	0x3e7249f5	0.23661025
131	0x3dc0d82e	0.09416233
132	0x3c01de27	0.0079265
133	0xbe12d6bd	-0.14339729
134	0xbb30325f	-0.0026885492
135	0xbd20a58d	-0.03922038
136	0x3ca011fa	0.019539822
137	0x3b005850	0.0019583888
138	0xbbc0defa	-0.005885956
139	0x3c4bcb5c	0.012438621
140	0x3dc8a72e	0.09797512
141	0x3bc935f3	0.0061404645
142	0xbc06c50d	-0.0082256915
143	0x39bdd91d	0.0003621065
144	0xbc4a446c	-0.012345415
145	0x3c12b618	0.008954547
146	0xbca2fdc4	-0.019896396
147	0xbc0b8e3f	-0.008517801
148	0x3d877cc4	0.06615594
149	0xbbfb12e2	-0.007662163
150	0x3d5d780e	0.05406957
151	0x3cb90dd8	0.022589609
152	0x3b5531c8	0.0032530893
153	0x3d8c1ec6	0.06841807
154	0x3bf4d1c9	0.0074712974
155	0x3d841ea5	0.064511575
156	0xbcb61ddd	-0.022231037
157	0x3d8f9fa7	0.07012873
158	0x3bd9ff92	0.006652781
159	0x3d291189	0.04127649
160	0x3c540294	0.012940068
161	0xbce1a9c8	-0.027546778
162	0xb949bb63	-0.00019238661
163	0x3c05f644	0.00817639
164	0xbd85b63a	-0.065288976
165	0x3d421ed1	0.04739267
166	0x3ba5b01b	0.005056394
167	0x3d10953e	0.03529858
168	0x3d504ebc	0.050856337
169	0x3bcd3e36	0.0062635196
170	0xbb4d3403	-0.003131152
171	0x396ba1eb	0.00022471666
172	0x3dc245b4	0.09485951
173	0xbae29a81	-0.0017288477
174	0xbbda20e5	-0.0066567534
175	0x3ccb52f9	0.024819838
176	0x3bc75f73	0.0060843765
177	0xbde4ba7f	-0.11168384
178	0x3c8e6be1	0.017385425
179	0xbd344820	-0.044014096
180	0x3c27096c	0.010195117
181	0xbd58bebd	-0.052916277
182	0xbb3d1367	-0.0028850676
183	0xbc228c40	-0.0099211335
184	0x3c0d2e9f	0.008617072
185	0x3d93e195	0.07220761
186	0x3cebb9ca	0.028775115
187	0xbcd0588e	-0.025432851
188	0x3cf421e4	0.029801317
189	0xbe193963	-0.14963298
190	0xbc14f26e	-0.009091003
191	0xbda7d006	-0.08193974
192	0x3d230e83	0.03980876
193	0x3cc20875	0.023685673
194	0xbd503d69	-0.050839815
195	0xbd27636a	-0.040866293
196	0xbbd5c36b	-0.00652354
197	0x3dc5e7d2	0.09663357
198	0x3f103deb	0.5634448
199	0x3dd120de	0.10211347
200	0xbc101854	-0.008794863
201	0xbb9a2b16	-0.0047048433
202	0xbbc52936	-0.0060168756
203	0xbbad2d73	-0.005284959
204	0x3cf25e70	0.029586047
205	0xbbe677c2	-0.007033319
206	0xba638584	-0.0008679258
207	0x39079b9a	0.0001293257
208	0xbdb0215d	-0.086001135
209	0xbc86dea6	-0.016463589
210	0x3b5cde53	0.0033701851
211	0x3bdcb809	0.006735806
212	0x3c386702	0.011255028
213	0x3c29e84e	0.010370327
214	0x3b8a8eec	0.0042284634
215	0x3c106e3e	0.008815346
216	0xbceeeec0	-0.02916658
217	0xbd254b10	-0.04035479
218	0x3ca5980a	0.0202141
219	0x3cfdad88	0.030966535
220	0x3d972bce	0.07381402
221	0x3d666b34	0.05625458
222	0xbb771e26	-0.003770718
223	0x3c9d22f1	0.0191817
224	0xbd040d1f	-0.032239076
225	0xbd78fc92	-0.060787745
226	0x3cbabadf	0.022794185
227	0x3d5881f7	0.05285832
228	0x3dc9ff89	0.098631926
229	0x3da72365	0.08161048
230	0xbc120cf8	-0.008914225
231	0x3d178ff6	0.037002526
232	0xbc5e49fa	-0.013567442
233	0x3d3f457e	0.046697132
234	0x3c8320ab	0.016006788
235	0x3d2d8247	0.04236057
236	0xbc97119c	-0.018441014
237	0x3cdd745b	0.027033022
238	0x3b20a08a	0.0024509751
239	0x3bbeb702	0.005820156
240	0xbc97576e	-0.018474307
241	0xbb93d279	-0.0045111743
242	0xbb01b3ab	-0.0019790928
243	0x3bfed0be	0.007776349
244	0x3d313740	0.04326558
245	0x3c1da716	0.009622356
246	0xb89f8f6f	-7.6084274e-05
247	0xb96b2318	-0.0002242442
248	0x3e10bd7e	0.14134786
249	0x3d23234c	0.039828584
250	0x3d4abd9e	0.04949724
251	0xbdc3b423	-0.09555843
252	0x3c56dd23	0.013114247
253	0x3cab439c	0.020906262
254	0xbc5c56ae	-0.0134484
255	0xbb44ea8e	-0.0030047032

sequential_12/sequential_9/model3/block_2_project/Conv2D f4 [8, 1, 1, 48]
0	0x3e26b0bc	0.16278356
1	0xbdf49a50	-0.11943495
2	0x3e7d2a8c	0.24723262
3	0xbdcd536e	-0.100256786
4	0xbe0d34ed	-0.13789721
5	0x3e1ca7e3	0.15298419
6	0xbe0c6b87	-0.13712893
7	0xbd399854	-0.045311287
8	0x3d11ee64	0.035627738
9	0x3ea8029b	0.32814488
10	0xbde7445d	-0.11292336
11	0xbdb4c912	-0.088274136
12	0xbdc93284	-0.09824088
13	0x3ec23cb7	0.37936947
14	0xbef9a3d7	-0.48757812
15	0xbef5722a	-0.47938663
16	0xbea13b8b	-0.3149074
17	0xbc9b957d	-0.01899218
18	0x3f6cb274	0.924598
19	0xbdf24b80	-0.11830807
20	0xbe135ce3	-0.14390902
21	0x3eabca46	0.3355276
22	0xbea54155	-0.32276407
23	0xbd5df4df	-0.054188605
24	0x3d9d1eb1	0.076718695
25	0x3e42ae62	0.19011834
26	0x3e97d458	0.29654193
27	0xbf3edce4	-0.745558
28	0xbded8d90	-0.115992665
29	0x3f213e68	0.6298585
30	0x3ee07273	0.43837318
31	0xbede763e	-0.43449587
32	0x3d3aa9bc	0.045572028
33	0xbc58855e	-0.013215391
34	0x3f25d09a	0.64771426
35	0x3ec6aabc	0.38802135
36	0x3d11d13f	0.035599943
37	0xbece1578	-0.40250754
38	0xc08f0238	-4.469021
39	0x3f23bab8	0.63956785
40	0x3d209ec4	0.03921391
41	0xbd45ddfa	-0.048307396
42	0xbd452810	-0.04813391
43	0xbe4e0671	-0.20119645
44	0x3fa881d6	1.3164623
45	0x3dbc67ec	0.09199509
46	0x3f19bfc8	0.6005826
47	0xbf19dc69	-0.60101944
48	0xbfa686ea	-1.3009923
49	0xbe8089f3	-0.25105247
50	0xbeab39ff	-0.33442685
51	0x3de8d9f8	0.11369699
52	0x3ffd9d83	1.9813694
53	0xc0178ab2	-2.3678403
54	0x3f67beb7	0.9052538
55	0xbd2050df	-0.039139625
56	0xc01c7d78	-2.445158
57	0xbf70c3a0	-0.940485
58	0x3e62ec38	0.22160423
59	0xbf65d253	-0.89774054
60	0x3f1c135d	0.60967046
61	0xbf908a8a	-1.1292279
62	0x3f24709a	0.64234316
63	0xbea475b4	-0.3212105
64	0xbeca5120	-0.39515018
65	0x4024b616	2.5736136
66	0xbeb204ca	-0.3476928
67	0x3f1f3c63	0.6220152
68	0x3faf6a25	1.3704268
69	0x3e387a27	0.18015347
70	0xbe2474db	-0.16060202
71	0xc00e32ea	-2.2218575
72	0xbe870e31	-0.26378015
73	0x3fdd2130	1.7275753
74	0xbefcf3da	-0.49404794
75	0x3e038d26	0.12846813
76	0x3eaaa8ae	0.33331817
77	0xbf3b1124	-0.7307303
78	0xbea82012	-0.32836968
79	0xbf5b0318	-0.85551596
80	0xbd3ebd21	-0.046567086
81	0xbf399e23	-0.7250692
82	0xbee688a4	-0.45026124
83	0x4029a018	2.6503963
84	0xc01f24d9	-2.486624
85	0x3ed73573	0.42032966
86	0xbd210cfa	-0.039319016
87	0x3e51c3b7	0.20484816
88	0xbeb4fae1	-0.35347655
89	0x3f65626a	0.8960329
90	0xbe808330	-0.25100088
91	0x3f849fc1	1.0361253
92	0xbf0fafe4	-0.5612776
93	0xbf2d2958	-0.6764121
94	0xbd692909	-0.0569239
95	0xbcd6b30a	-0.02620842
96	0x3e809d77	0.25120136
97	0xbde9a6e9	-0.11408789
98	0xbf38e723	-0.72227687
99	0xbea72680	-0.3264656
100	0x3c3ff9bc	0.011717256
101	0xbf8aa1d9	-1.0830642
102	0x3f637a7f	0.8885879
103	0x3f888039	1.066413
104	0xbf40327a	-0.7507702
105	0xbe3b86fc	-0.18313211
106	0x401fe95d	2.4986184
107	0xbfe28623	-1.7697185
108	0x3f792d7b	0.9733502
109	0xbeeae247	-0.4587576
110	0x3e5cdad4	0.21567851
111	0x3e0b0999	0.1357788
112	0xbf9e4771	-1.2365552
113	0xbfb20e2a	-1.3910573
114	0x3f248819	0.6427017
115	0x3ffa116d	1.9536568
116	0xc008f17d	-2.1397393
117	0x3f81296c	1.0090766
118	0xbf318c69	-0.69354874
119	0x3fb5315b	1.4155687
120	0x3fb1efa4	1.3901258
121	0xc0036141	-2.052811
122	0x3f6ccee4	0.9250319
123	0x3db6baee	0.08922373
124	0x3e485461	0.19563438
125	0xbee92135	-0.45533147
126	0xbf9a31fb	-1.2046503
127	0xbe40abc0	-0.18815517
128	0xbf60162c	-0.8753383
129	0x4010700c	2.2568388
130	0xc00c0252	-2.1876416
131	0xbea0b6a4	-0.31389344
132	0xbe336c67	-0.17521821
133	0x3f78f905	0.97254974
134	0xbda6a726	-0.0813735
135	0x3db5562d	0.08854327
136	0xbf7f92c7	-0.9983334
137	0xbefce998	-0.49396968
138	0xbfac2c39	-1.3450996
139	0x3f994dda	1.1976883
140	0x3e637886	0.22213945
141	0x3fa62dc9	1.2982723
142	0xbf5fe0ea	-0.87452567
143	0x3f096c1e	0.536806
144	0xbf3fdeb2	-0.7494918
145	0x3e7d2d13	0.24724226
146	0xbec78992	-0.38972145
147	0xbd77df5c	-0.060515746
148	0x3e75b799	0.23995818
149	0xbfffaf61	-1.9975396
150	0x3f5b9e2a	0.85788214
151	0x3ef22850	0.4729638
152	0xbf9971ac	-1.1987815
153	0xbfb68c3e	-1.4261549
154	0x3f8f3618	1.1188383
155	0xbef8ef87	-0.48620245
156	0x3eefa067	0.46802065
157	0xbe12860e	-0.1430895
158	0x3d9928f7	0.074785165
159	0xbcbad1b8	-0.02280508
160	0xbf12083f	-0.5704383
161	0xbcb6450b	-0.02224972
162	0x3eb29ffc	0.34887683
163	0x3f96b57f	1.1774138
164	0xbfaa8d47	-1.3324364
165	0xbc04b1c9	-0.008099028
166	0xbdc73c64	-0.097283155
167	0xbe3c10a3	-0.18365721
168	0x3e2619ee	0.16220829
169	0x3d6e004f	0.058105763
170	0x3ef01691	0.46892217
171	0x3e3b6f2e	0.1830413
172	0xbec2403d	-0.37939635
173	0xbeee0461	-0.46487716
174	0xbf4b0866	-0.7930969
175	0xbdabb53b	-0.08384176
176	0xbf093aaf	-0.5360517
177	0x3f42d841	0.7611123
178	0x405317bb	3.2983234
179	0xbfd2c930	-1.6467648
180	0xbe976c92	-0.2957502
181	0x3c608d32	0.013705539
182	0xbeac1851	-0.33612302
183	0x3dffaf96	0.12484662
184	0xbefc1b45	-0.49239555
185	0x3d7007d3	0.05860121
186	0xbf00c6e0	-0.5030346
187	0x3f7472e7	0.9548783
188	0x3ef8cd39	0.48594072
189	0x3e6a3103	0.22870259
190	0xbc4ed3bb	-0.012623723
191	0x3e546e86	0.20745286
192	0x3e2e7132	0.17035368
193	0x3ce26c57	0.027639551
194	0x3f01d3e5	0.5071395
195	0xbf6bf659	-0.9217277
196	0x3f29a4cb	0.6626708
197	0xbe7259d8	-0.23667085
198	0x3d1f0d18	0.038830847
199	0x3eecb937	0.46235058
200	0xbe979052	-0.29602295
201	0x3e15bd18	0.14622915
202	0x3e2b424a	0.16724506
203	0xbe3d9cd0	-0.1851685
204	0xbec5d419	-0.3863838
205	0x3e00cdda	0.12578526
206	0x3fe8f319	1.8199188
207	0x3f7aaf50	0.97923756
208	0xbf0d4b97	-0.55193466
209	0x3dad777f	0.08470058
210	0xbfab942c	-1.3404593
211	0xbf0079fe	-0.50186145
212	0x3fa5e9b7	1.2961949
213	0xbf93d8ff	-1.1550597
214	0x3ef05007	0.46936056
215	0x3f21a8aa	0.63147986
216	0xbe032493	-0.1280692
217	0xbe6f5c37	-0.23375021
218	0xbf9a6283	-1.2061313
219	0x3f374f94	0.716058
220	0xc01dd631	-2.4661982
221	0xbfa0d64b	-1.2565397
222	0xbe10bd7e	-0.14134786
223	0x3fe4d606	1.7877815
224	0xbebb5554	-0.36588538
225	0xbf06fe61	-0.527319
226	0x3ee08fb8	0.4385965
227	0x3d7b6fb8	0.06138584
228	0xbf1bb23c	-0.6081884
229	0x3e179b14	0.14805251
230	0xbf3e51fa	-0.74343836
231	0xc0024682	-2.0355535
232	0xbed20723	-0.4102107
233	0xbf376f7d	-0.7165449
234	0xbed2bf0e	-0.41161388
235	0xbe18ed53	-0.14934282
236	0xc0307c92	-2.7576032
237	0x3da1e4ac	0.07904944
238	0xbf00fc72	-0.503852
239	0x3ff0723b	1.878486
240	0xbf54838c	-0.83013225
241	0x3f02c35b	0.5107934
242	0x3f34513f	0.7043647
243	0xbefe9fd7	-0.49731323
244	0xbebb471d	-0.36577693
245	0xbfbac427	-1.4591111
246	0x3de26555	0.11054484
247	0x3e9f243d	0.31082335
248	0xbf499dfe	-0.787567
249	0xc00d4126	-2.2071013
250	0xbf50671a	-0.8140732
251	0x400fb396	2.245336
252	0xbf5be96f	-0.85903066
253	0x3f832753	1.0246376
254	0x3f175ab1	0.5912276
255	0x3f161012	0.5861827

sequential_12/sequential_9/model3/block_2_expand/Conv2D f4 [48, 1, 1, 8]
0	0xbbf5fc17	-0.007506858
1	0x3dd60f05	0.104520835
2	0xbc947693	-0.018122947
3	0x3dc77c7d	0.09740541
4	0xbcb0f7b0	-0.021602482
5	0x3e0444e6	0.12916908
6	0xbc29af85	-0.0103567885
7	0x3cf2405a	0.0295717
8	0x3d0e3735	0.03472062
9	0x3e2527f1	0.16128518
10	0x3d8cf64f	0.06882917
11	0xbd14f768	-0.036368757
12	0xbdf8e2d2	-0.121526375
13	0xbe8a95e9	-0.27067497
14	0x3e0101e2	0.12598374
15	0x3d693e6f	0.056944307
16	0x3b24d44f	0.002515096
17	0x3b672312	0.0035268706
18	0xba93fd58	-0.0011290712
19	0x3ad61ced	0.0016335525
20	0xbc9f2329	-0.019425945
21	0xba84fa17	-0.0010145333
22	0x3c27cec2	0.010242166
23	0x3d14e868	0.036354452
24	0x3bc87c09	0.006118302
25	0x3d0070a9	0.03135744
26	0x3ba0ded4	0.0049093757
27	0xbbfbe18e	-0.0076868003
28	0xbd76b327	-0.060229447
29	0xbd5fd5df	-0.054647323
30	0x3dbb82de	0.0915582
31	0x3e19ea64	0.15030819
32	0xbd2947aa	-0.04132811
33	0x3d8a0d44	0.067408115
34	0xbd518d2c	-0.051160023
35	0x3b03c004	0.0020103464
36	0x3d20dd31	0.039273445
37	0xbd35a190	-0.04434353
38	0xbee1bdd4	-0.4409014
39	0x3e7c4995	0.24637444
40	0xbabe2f86	-0.0014510013
41	0x3d235055	0.039871532
42	0x3cfa5acd	0.030560875
43	0x3d8c96af	0.06864678
44	0xbc241757	-0.01001533
45	0x3d772187	0.06033471
46	0xbabbc099	-0.0014324366
47	0x3ce3e963	0.027821248
48	0xbe0cdd51	-0.137563
49	0x395a285f	0.0002080514
50	0xbb9c9b88	-0.004779283
51	0x3c18bf0d	0.009322894
52	0x3d6b4622	0.05743993
53	0xbc8c2afa	-0.017110337
54	0xbb14b445	-0.0022690457
55	0xbbb507f3	-0.0055246293
56	0x3bf41bfb	0.0074496246
57	0xbd3dafe5	-0.046310324
58	0x3d406c30	0.046978176
59	0x3c848b2e	0.016179647
60	0xbc8300a3	-0.015991515
61	0x3d744b70	0.059642255
62	0x3aa2b7fc	0.0012414451
63	0xbdec0d67	-0.11525994
64	0xbb39fb08	-0.0028378386
65	0x3d8071c5	0.062717
66	0x3aaadaaa	0.0013035138
67	0x3d48398e	0.048883013
68	0xbbc68b0e	-0.006059057
69	0x3d47ad37	0.048749175
70	0x3bcc3df7	0.0062329727
71	0x3cec8daf	0.028876154
72	0x3b580017	0.0032959038
73	0xbdd46d14	-0.103723675
74	0xbdbcd2e2	-0.0921991
75	0xbe80e24e	-0.25172657
76	0x3d13131a	0.03590689
77	0xbe894cac	-0.26816308
78	0x3c0c17ad	0.008550567
79	0xbdb04ec2	-0.08608772
80	0x3a7bcbef	0.00096052786
81	0xbe5c54f3	-0.2151678
82	0xbee251da	-0.44203073
83	0xbe8a7949	-0.27045658
84	0x3c8dbaab	0.017300924
85	0x3e8b36b3	0.2719017
86	0xbc892927	-0.016743256
87	0x3d2bbd13	0.041928362
88	0xbb59d266	-0.003323698
89	0x3e455d8f	0.19273971
90	0x3e8e7175	0.27820936
91	0x3dab8f0b	0.08376893
92	0x3c99a547	0.018755568
93	0xbe9fa816	-0.31182927
94	0xbcbe940b	-0.023263952
95	0xbd8c312d	-0.06845317
96	0x3c9c3cfc	0.019072048
97	0xbe32cbb2	-0.17460516
98	0xbd09acf9	-0.033612225
99	0xbdfa7bb2	-0.12230624
100	0xbddcf68e	-0.10789214
101	0xbc1daa73	-0.009623158
102	0xbe15fc4a	-0.14647022
103	0xbe96de3a	-0.2946642
104	0x3d886e6e	0.06661688
105	0x3db0c30b	0.086309515
106	0xbc74eab9	-0.01494854
107	0xbd3d0185	-0.046144027
108	0xbd8d8f87	-0.06912141
109	0x3ca654f2	0.020304177
110	0x3f0a3805	0.5399173
111	0xbef90820	-0.4863901
112	0x3d58017f	0.0527358
113	0x3e3f240d	0.18666096
114	0xbd797de3	-0.06091107
115	0xbbdafda0	-0.0066830665
116	0xbd56d037	-0.052444663
117	0x3c15a6a1	0.009133966
118	0x3e8f12f7	0.27944157
119	0xbe4328d5	-0.19058545
120	0x3d12147b	0.035664063
121	0xbd99c4a5	-0.0750821
122	0x3dc6dbb2	0.09709872
123	0x3d2183c2	0.039432295
124	0xbe20de81	-0.15709879
125	0x3c818870	0.015812129
126	0x3d3b5219	0.04573259
127	0xbd96a8cf	-0.073564164
128	0x3d33860c	0.04382901
129	0x3c9a61a7	0.018845392
130	0xbcea4801	-0.028598787
131	0xbbff4391	-0.007790037
132	0x3d933353	0.07187524
133	0xbc252f9c	-0.010082152
134	0xbcf7fe46	-0.030272614
135	0x3c9d69ae	0.019215431
136	0x3c3c680f	0.011499419
137	0xbdc567e5	-0.09638957
138	0x3d62ad4d	0.055341054
139	0x3c7eb7f2	0.015546786
140	0xbbda8d1e	-0.0066696545
141	0x3bafca5f	0.0053647007
142	0x3ba58a6e	0.0050519025
143	0x3cd3395f	0.025784193
144	0x3b7e0c12	0.0038764519
145	0xbbd84bbb	-0.0066008247
146	0x3bc2d15b	0.0059453673
147	0x3b03c0f4	0.0020104023
148	0xbcc86c9a	-0.024465848
149	0xbb8eb20e	-0.004354722
150	0x3d113fae	0.03546112
151	0x3c1c42a3	0.009537372
152	0xbbaaa2fc	-0.0052074175
153	0x3d53c483	0.05170108
154	0x3cc574a4	0.02410347
155	0x3d9a996c	0.07548794
156	0xbc8b4c97	-0.017004294
157	0x3d838e86	0.064236686
158	0x39f4ade5	0.00046668868
159	0x3d06965e	0.032858245
160	0xbbc1bec9	-0.005912636
161	0x3ca6071e	0.020267066
162	0x3b97574e	0.004618562
163	0xbaa325ef	-0.0012447218
164	0x3cfa70f9	0.030571448
165	0xbcb088b6	-0.021549564
166	0xbd26223a	-0.040559985
167	0xbc803fcb	-0.015655419
168	0x3c628c37	0.013827375
169	0xbc2cd6b6	-0.010549238
170	0x3c8d939f	0.017282305
171	0x3afa7608	0.0019108662
172	0xbcd00158	-0.025391266
173	0x3c942518	0.018084094
174	0x3dd730a5	0.10507325
175	0xbd20109f	-0.03907835
176	0x3b40c0a4	0.0029411698
177	0x3d1e574a	0.038657464
178	0xbdc5e41a	-0.096626475
179	0xbdab9b1f	-0.083791964
180	0x3d90aa88	0.07063776
181	0xbd268b75	-0.04066034
182	0x3e52ea75	0.20597251
183	0xbd90280e	-0.0703889
184	0x3c08d5e2	0.008351775
185	0x3e877114	0.2645346
186	0xbe61c5ee	-0.2204816
187	0xbd17e5dd	-0.03708445
188	0xbbdab051	-0.0066738506
189	0x3d90b3d1	0.07065547
190	0xbc04ffa5	-0.008117591
191	0xbd09a036	-0.033600055
192	0x3e06fb54	0.13181812
193	0xbd02a030	-0.031891048
194	0x3bb1cf72	0.0054263407
195	0xbc0919c5	-0.00836796
196	0x3d00edcb	0.031476777
197	0x3b9c0979	0.0047618714
198	0xbc824ccc	-0.01590576
199	0x3cdce52a	0.026964743
200	0xb9b49879	-0.00034445876
201	0xbe4e9a6f	-0.20176099
202	0xbcbd0ff3	-0.023078894
203	0xbdd66894	-0.104691654
204	0x3ca9cf1e	0.020728644
205	0xbd45f4fd	-0.048329342
206	0x3cac5623	0.021037167
207	0x3aff69f7	0.0019486536
208	0x3d20199e	0.03908693
209	0xbca222d0	-0.01979199
210	0x3c0f9488	0.00876344
211	0xbd0c3d13	-0.034237932
212	0xbe5a5682	-0.21322063
213	0x3cda9898	0.02668409
214	0x3dabbbdc	0.08385441
215	0xbd93fd23	-0.07226016
216	0xbb97d91b	-0.0046340353
217	0xbca0d782	-0.019634012
218	0x3c0a4d08	0.008441217
219	0x3b5aa2a8	0.003336111
220	0xbd59d1c8	-0.05317858
221	0x3cadef14	0.021232165
222	0xbe316b43	-0.17326073
223	0x3d272a01	0.040811542
224	0xbc014209	-0.007889279
225	0xbc9bb684	-0.019007929
226	0x3c516f51	0.012782888
227	0x3c1eb7fe	0.009687422
228	0x3de7f867	0.11326676
229	0x3b11fc0c	0.0022275476
230	0xbde658f0	-0.11247432
231	0x3d8abede	0.06774686
232	0x3caa6fd7	0.020805283
233	0x3beec166	0.0072862385
234	0x3cc46102	0.023972038
235	0xbaa04297	-0.0012226877
236	0xbded17a4	-0.11576775
237	0xbbba5566	-0.00568645
238	0xbd35dba6	-0.044398926
239	0x3bd3b93b	0.00646129
240	0xbe2c2aa0	-0.16813135
241	0x3c585c50	0.013205603
242	0xbd3a40ce	-0.04547196
243	0x3c7854a7	0.015156901
244	0x3ce0f6e0	0.02746147
245	0xbc911ff6	-0.017715435
246	0xbcbf563a	-0.023356546
247	0x3c1cce57	0.00957068
248	0x3d2c69d8	0.042093128
249	0xbdab5342	-0.083654895
250	0xbd4de4f7	-0.050267186
251	0xbe2194a7	-0.15779363
252	0xbde843dd	-0.11341069
253	0xbd6db833	-0.058036994
254	0xbdd207b3	-0.10255375
255	0xbdc9843a	-0.09839673

sequential_12/sequential_9/model3/block_1_project/Conv2D f4 [8, 1, 1, 48]
0	0xbef4c7ce	-0.4780869
1	0x3d311f10	0.043242514
2	0x3fc39613	1.5280174
3	0xbe342a44	-0.17594248
4	0x3efddb98	0.495816
5	0xbe896948	-0.26838136
6	0xbe5bb6fa	-0.21456519
7	0x40969be7	4.706531
8	0x3db33444	0.08750203
9	0xbd8e16ed	-0.069379665
10	0x3fb2cf09	1.3969432
11	0xbe3172a0	-0.17328882
12	0xbe8eb69f	-0.27873704
13	0xbe64858b	-0.22316568
14	0xbc238673	-0.009980786
15	0x4082fbfd	4.0932603
16	0xbdb9521d	-0.09048865
17	0xbdca38c9	-0.09874112
18	0x3f0ad346	0.5422863
19	0xbdd69da8	-0.10479289
20	0x3d9d4ade	0.076802954
21	0xbdffbe07	-0.12487417
22	0xc0268d2d	-2.6023667
23	0x3de67e83	0.11254599
24	0x3bfdd919	0.0077468273
25	0x3ecfe8db	0.40607342
26	0x3ca7d4f3	0.020487284
27	0xc0865e9a	-4.199048
28	0x3e019476	0.1265429
29	0xbe1e9709	-0.15487303
30	0xbfc3883c	-1.527595
31	0xbc95a3fd	-0.018266672
32	0xbde71733	-0.11283722
33	0xbe05a40d	-0.13050862
34	0xbd541aa9	-0.051783238
35	0xbcc52868	-0.024067119
36	0xbd461813	-0.048362803
37	0x3cc6e16a	0.024277408
38	0x3d4a80a0	0.049439073
39	0xbfe78c37	-1.8089665
40	0x3e645fe5	0.22302206
41	0x3cce9b4e	0.02522054
42	0xbe2e691b	-0.17032282
43	0xbcd68cb1	-0.026190134
44	0xbc9ef209	-0.01940252
45	0x3d81dcad	0.06340919
46	0x3db44e18	0.08803958
47	0x3faf1c6c	1.3680549
48	0x3f656515	0.89607364
49	0x3f3cb0aa	0.7370707
50	0x3dac2ca9	0.08406956
51	0xc090e384	-4.527773
52	0x3f76aa8a	0.9635397
53	0xbea1b730	-0.31585073
54	0x3f6eecc2	0.93330014
55	0xbd8ea285	-0.06964592
56	0x3ff5f74f	1.9216098
57	0x3e658061	0.22412254
58	0x3f1a7a0a	0.60342467
59	0xbf2c6ddc	-0.6735513
60	0xbf816ec2	-1.0111926
61	0x3fa28e3c	1.2699656
62	0x3eaa2a90	0.33235598
63	0xbdbe2493	-0.0928432
64	0x3f8c2411	1.0948507
65	0x3f9bfd25	1.2186629
66	0xbf8eeda2	-1.116627
67	0xbf72f8b0	-0.94910717
68	0x3f2a7930	0.6659117
69	0xc0880358	-4.250408
70	0xbeaf3814	-0.34222472
71	0x3fa7766f	1.3083018
72	0x3f4a7291	0.79081064
73	0xbed039c8	-0.40669084
74	0xbf4ec28f	-0.8076562
75	0xbde600e7	-0.11230641
76	0x3ec34d7f	0.38145062
77	0xbfa348a7	-1.2756547
78	0x3f3d0745	0.7383922
79	0x3e731868	0.23739779
80	0xbf880c2d	-1.0628716
81	0x3fc847f0	1.5646954
82	0x3eed17dc	0.46307266
83	0x3fad8fe2	1.3559535
84	0xc01fb2e7	-2.4952943
85	0x3fb92374	1.4463944
86	0xbf49d043	-0.7883341
87	0xbea66f09	-0.32506588
88	0xbc9c48e1	-0.01907772
89	0x3e9bfbe2	0.3046561
90	0x3f01dabe	0.507244
91	0x3d7e50c5	0.062088747
92	0x3f734e2e	0.9504117
93	0x3e851fa9	0.26000717
94	0x40161581	2.3450625
95	0x3e456fa8	0.19280875
96	0x3eca2698	0.3948257
97	0x4010b30b	2.260928
98	0x3f542b5d	0.8287867
99	0x404f6fbb	3.2411945
100	0x4007cd88	2.1219196
101	0xbc072c9a	-0.00825038
102	0x3df5a479	0.11994261
103	0xbeb5eeef	-0.35533854
104	0x3fc64883	1.5490879
105	0xbfd8acc8	-1.6927729
106	0xbeeddf2b	-0.46459326
107	0x3ec0149a	0.37515718
108	0x3f93dfb6	1.1552646
109	0xbeb2f319	-0.34951094
110	0xbf989c6c	-1.1922736
111	0x3e102a48	0.14078629
112	0xbfad6505	-1.3546454
113	0x401126ce	2.2679935
114	0xc002f8d0	-2.0464363
115	0x3fcbbada	1.5916398
116	0x404cfa8b	3.202792
117	0xbf9ac381	-1.2090913
118	0xbeff8f63	-0.49914083
119	0x3c78c00d	0.015182507
120	0x406c7188	3.6944294
121	0x3eaf77d2	0.34271103
122	0xbfe5a2b1	-1.7940274
123	0xbf06da6b	-0.5267703
124	0x40107a55	2.2574666
125	0x400b268f	2.1742284
126	0x3fea14ce	1.8287599
127	0xbf260245	-0.64847213
128	0x3fd7e674	1.6867204
129	0x3f71258d	0.9419792
130	0xbd5255a1	-0.051351193
131	0xb8a5e843	-7.911075e-05
132	0x3ea5867b	0.32329163
133	0x40623608	3.5345478
134	0xbfdee8b5	-1.7414767
135	0xbee1bfb7	-0.4409158
136	0x3e8ffd34	0.28122866
137	0x401167a7	2.2719514
138	0xbf12c3f0	-0.57330227
139	0x3fbaaf64	1.4584775
140	0x3ffc7cbf	1.972557
141	0x3fa553a3	1.2916149
142	0xbf95d76c	-1.1706367
143	0x3f180d9f	0.59395784
144	0x3ec115ca	0.37711936
145	0x3f9fd4c8	1.2486811
146	0xbf46d8c7	-0.77674526
147	0x3f2367c9	0.6383024
148	0xc02c4491	-2.691685
149	0xbe568965	-0.2095085
150	0x3eaad23b	0.33363518
151	0x3e20ec5d	0.15715165
152	0x3f5061af	0.81399053
153	0x3f3967d1	0.72424036
154	0x3cd42116	0.025894683
155	0x3ea30bb4	0.31844866
156	0x3dc1191a	0.09428616
157	0x3ea8d923	0.32978162
158	0xbee2e975	-0.4431874
159	0xbbf5dcfd	-0.0075031505
160	0xbf295b79	-0.661552
161	0x3fba1d18	1.4540129
162	0x40409738	3.0092297
163	0x3ecd7064	0.4012481
164	0x3fa8e62d	1.3195244
165	0xbf790be9	-0.972838
166	0x3f3092e0	0.68974113
167	0xbe043ecc	-0.1291458
168	0x3fc3afb1	1.5287992
169	0x3f194c2b	0.5988185
170	0xbf679db6	-0.9047502
171	0x3e7d8086	0.24756059
172	0x3f6478f9	0.8924709
173	0x3f1c826d	0.61136514
174	0xc01685f1	-2.3519251
175	0x3f9eb093	1.2397636
176	0x3f263e95	0.6493924
177	0x4034c1db	2.824332
178	0x3fa0a9e1	1.2551843
179	0x3fad5527	1.3541611
180	0xbee95ff1	-0.4558101
181	0x3fe45aa1	1.7840158
182	0xbf7674a1	-0.9627171
183	0x3f8db55a	1.1070969
184	0xbf35b1d4	-0.7097447
185	0x3f69b85b	0.9129693
186	0xbe69f2f0	-0.2284658
187	0x3f539919	0.82655483
188	0x3fa4cc9e	1.2874944
189	0x3f04be21	0.51852614
190	0xbe970423	-0.29495344
191	0xbf047675	-0.5174325
192	0x3f5c172e	0.8597287
193	0xbc9c20e6	-0.019058656
194	0x3e9ab0a6	0.30212897
195	0x3eee8d2e	0.46592087
196	0x3f31f4e5	0.69514304
197	0x3fc31fbd	1.5244061
198	0x3ee93da6	0.45554847
199	0x3facda25	1.3504072
200	0x3d5133e4	0.051074877
201	0x3d8f4a26	0.069965646
202	0xc033b760	-2.8080673
203	0x3f92d533	1.1471313
204	0x3df204fb	0.11817356
205	0x3f0d2f0a	0.551499
206	0xbf331dd3	-0.69967383
207	0xbf953654	-1.1657205
208	0xbef07c23	-0.4696971
209	0x3b6e48e9	0.0036359376
210	0xbee45eda	-0.44603616
211	0x3d32945c	0.043598518
212	0x3e5a7189	0.21332373
213	0x3df2852c	0.11841807
214	0xbe973ba0	-0.29537678
215	0xbe9224aa	-0.28543597
216	0xbd286a02	-0.041116722
217	0xbf873b5f	-1.0564994
218	0xbe9a1051	-0.30090573
219	0xbf9ee3bd	-1.241325
220	0x3e060d9a	0.13091126
221	0x3dc25eac	0.094907135
222	0x3b07cfb4	0.0020723166
223	0xbbd14aba	-0.006387082
224	0x3ee1833a	0.4404543
225	0xbc4f62ce	-0.012657834
226	0x3e242463	0.16029505
227	0xbf645ad3	-0.89201087
228	0xbebeeb3e	-0.3728885
229	0xbe82fca2	-0.2558337
230	0xbea085db	-0.31352124
231	0x40c46044	6.136751
232	0xbf62b018	-0.8854995
233	0x3e3684f9	0.17824163
234	0xbf969513	-1.1764244
235	0x3f3a6040	0.72803116
236	0x3e08eee9	0.13372387
237	0x3d80a8e8	0.06282216
238	0xbf113a1a	-0.5672928
239	0x404799c6	3.1187606
240	0xbf0a2a62	-0.5397092
241	0xbf4c41b5	-0.7978776
242	0x3f6be238	0.9214206
243	0x3e843bfe	0.2582702
244	0x3fc258a2	1.5183299
245	0xbf3f37d8	-0.74694586
246	0xbf4ffdb7	-0.81246513
247	0xbe4ae83e	-0.19815156
248	0xbf74ef4d	-0.95677644
249	0x4061005d	3.5156472
250	0xbdb61f31	-0.08892668
251	0x3f0a5d1a	0.5404831
252	0xbe3798d3	-0.17929392
253	0x3e125eac	0.14293927
254	0xbf49de06	-0.78854406
255	0xbe661d81	-0.22472192

sequential_12/sequential_9/model3/block_1_expand/Conv2D f4 [48, 1, 1, 8]
0	0x3ec8a1a0	0.3918581
1	0xbdc32e9d	-0.09530375
2	0xbfb615eb	-1.4225439
3	0xbfcc9bdd	-1.5985066
4	0xbbaeade4	-0.005330788
5	0xbe4737f4	-0.19454938
6	0xbea06b8e	-0.31332058
7	0x3ea6cb7d	0.32577124
8	0xbca84110	-0.020538837
9	0xbd864f07	-0.06558042
10	0x3b5d261c	0.0033744639
11	0x3c3c2bf1	0.011485086
12	0xbd2167a9	-0.0394055
13	0xbe26b0e6	-0.16278419
14	0x3daab705	0.083356895
15	0x3c2d13fa	0.010563845
16	0xbe0bd361	-0.13654853
17	0x3cdc6676	0.026904326
18	0x3da5afc5	0.08090166
19	0xbdef0a9d	-0.11671946
20	0x3a06186d	0.0005115334
21	0xbbdccb74	-0.0067381207
22	0xbc34f963	-0.011045787
23	0xbc8f761e	-0.017512377
24	0x3ac61714	0.0015113079
25	0xbc827c31	-0.01592836
26	0xbcb23022	-0.021751467
27	0xbd031156	-0.031998955
28	0x3b2ea1fa	0.0026646839
29	0x3d6e0513	0.058110308
30	0x3d69fc94	0.057125643
31	0x3c66695b	0.014063205
32	0x3d186a7d	0.03721093
33	0x3b9b9f14	0.004749188
34	0x3dd06012	0.10174574
35	0xbdba98fa	-0.09111209
36	0x3aafd043	0.0013413507
37	0xbb2ba595	-0.0026191224
38	0xbb6db125	-0.0036268916
39	0x3c8d62c1	0.017259004
40	0x3e51d88c	0.20492762
41	0x3fc275d0	1.5192204
42	0xbd839b9b	-0.06426164
43	0xbd653a07	-0.055963542
44	0x3dc01856	0.09379642
45	0x3e86ce40	0.2632923
46	0x3e21b8c3	0.15793137
47	0xbe7453eb	-0.23860137
48	0x3c988e95	0.018622676
49	0xbca6b6be	-0.02035081
50	0xbc7351e4	-0.014851067
51	0xbd0d73f2	-0.034534402
52	0x3c9d8f03	0.019233232
53	0x3ab57b21	0.0013845899
54	0x3c4679ed	0.01211403
55	0xbe7ac111	-0.24487711
56	0xbda01e96	-0.07818334
57	0x3c16b149	0.0091975415
58	0xbb0338fc	-0.002002298
59	0xbc959aac	-0.01826223
60	0x3ac0c346	0.0014706634
61	0xb96e3b03	-0.00022719432
62	0xbae6cf35	-0.001760936
63	0xbc3e4d81	-0.011615158
64	0xbd12472b	-0.035712402
65	0xbe486bda	-0.19572392
66	0xbdb2e7b8	-0.08735603
67	0xbe10ced8	-0.14141405
68	0x3e42b803	0.19015507
69	0x3e9ab657	0.3021724
70	0x3ed5226d	0.41627827
71	0x3d306398	0.04306373
72	0xbca05c14	-0.019575156
73	0xbd9fccb8	-0.07802719
74	0xbbcb33ec	-0.006201258
75	0x3c2e66e8	0.010644652
76	0x3bb60e3d	0.0055558966
77	0xbdc5754f	-0.096415155
78	0x3da87d02	0.08226968
79	0x3c81119a	0.015755463
80	0x3beb258d	0.0071761073
81	0xbb79f405	-0.0038139832
82	0xbd294195	-0.04132231
83	0xbd94a0fc	-0.07257268
84	0x3b6b8f20	0.0035943463
85	0xbb52c2bb	-0.0032159525
86	0xb885ddd5	-6.383254e-05
87	0x3c64c093	0.013961929
88	0x3e25452e	0.16139671
89	0x3d2a79fd	0.041620243
90	0xbf24e6cc	-0.6441467
91	0xbf383e39	-0.71969944
92	0xbe9849ab	-0.29743704
93	0xbe1b59cb	-0.15170972
94	0xbe635ae0	-0.22202635
95	0x3e2d4fac	0.16924924
96	0x3e79e334	0.24403077
97	0xbc2a3d80	-0.010390639
98	0xbd2b2ad8	-0.041788906
99	0x3dfe9e76	0.12432568
100	0x3b7a4ab5	0.0038191502
101	0x3c518e4a	0.012790272
102	0x3c670105	0.014099364
103	0x3d9bb2ed	0.07602487
104	0x3dacd9bb	0.08439966
105	0x3ea785fb	0.32719406
106	0x3e050d15	0.12993272
107	0x3e6e53c1	0.23274137
108	0xbf8e46d3	-1.1115364
109	0xbef6be7e	-0.4819221
110	0xbf0f817a	-0.5605694
111	0xbe4404ff	-0.19142531
112	0xbca93a8a	-0.020657796
113	0xbcdaa053	-0.026687777
114	0x3d715734	0.058921054
115	0x3d849d25	0.064752854
116	0x3d26b4b0	0.04069966
117	0x3d0a9f27	0.033843186
118	0x3da0cbbb	0.078513585
119	0xbb284d84	-0.0025680969
120	0xbec957ee	-0.39324898
121	0xbd947f88	-0.07250887
122	0xbdd63306	-0.10458951
123	0xbe94d9ce	-0.29072422
124	0xbb0809be	-0.002075776
125	0xbc89e1bd	-0.016831273
126	0x3d413862	0.04717291
127	0xbfa20e46	-1.2660606
128	0x3d429dc6	0.047513746
129	0x3beb2665	0.007176208
130	0xbe2be2de	-0.16785762
131	0xbe386114	-0.18005782
132	0xbd94dc03	-0.072685264
133	0xbd1394ba	-0.03603051
134	0xbd4f8b0e	-0.050669722
135	0x3cc9855a	0.02459972
136	0x3c7eeb78	0.01555907
137	0xbd9a3c9b	-0.07531091
138	0x3c18a5f5	0.009316911
139	0x394a1d9c	0.00019275252
140	0xbc8a2b85	-0.016866455
141	0x3d983a02	0.07432939
142	0xbdbe61a3	-0.092959665
143	0xbc0c1426	-0.008549726
144	0xbd2b5265	-0.041826624
145	0x3b9bc51f	0.0047537233
146	0xbd9a2d31	-0.07528151
147	0x3d6605a3	0.05615772
148	0xb9f4a93a	-0.0004666539
149	0x3b8c0f57	0.0042742896
150	0x3b4a6a87	0.003088625
151	0xbc15a099	-0.009132528
152	0x3d935bba	0.0719523
153	0x3b9670cc	0.004591083
154	0xbd4edf02	-0.050505646
155	0xbd3143c0	-0.043277502
156	0xbd037c68	-0.032101065
157	0xbdfec428	-0.124397576
158	0xbe066e7c	-0.13128084
159	0xbd9b780f	-0.07591259
160	0x3c0684e4	0.0082103945
161	0x3c829038	0.01593791
162	0xbc53c7a9	-0.012926021
163	0xbbeb12fe	-0.007173895
164	0x3dee8fe8	0.11648542
165	0xbd5861b7	-0.052827563
166	0xbd5fc77e	-0.05463361
167	0x3bc6b6ee	0.0060642874
168	0x3c6f05dd	0.0145888
169	0x3c11fc2d	0.008910221
170	0xbc9dc3e9	-0.019258456
171	0xbc862872	-0.016376708
172	0x3e07039e	0.13184974
173	0xbd77d94a	-0.060509957
174	0xbd94aff5	-0.07260124
175	0x3beece43	0.007287772
176	0xbfbcee86	-1.4760292
177	0x3e8debec	0.27719057
178	0x3fc0dec2	1.506798
179	0xbfce8ad6	-1.6136119
180	0xbb10cce1	-0.0022094774
181	0xbe266d85	-0.16252716
182	0xbda20b42	-0.079123035
183	0xbd1cfecc	-0.03832893
184	0xbdc178c3	-0.094468616
185	0xbec6cc5a	-0.38827783
186	0xbe5ebb55	-0.21751149
187	0xbec85208	-0.39125085
188	0x3f0b864b	0.5450179
189	0x3f3bb300	0.7332001
190	0x3f65c02e	0.8974637
191	0x3e62455b	0.2209677
192	0xbc39aa67	-0.011332131
193	0xbb628db1	-0.0034569318
194	0x3c6db6b2	0.01450889
195	0x3c3ba770	0.011453494
196	0xbdec80fd	-0.1154804
197	0x3d34d08c	0.0441442
198	0x3d409747	0.04701927
199	0xbbfa209a	-0.007633281
200	0xbcad0d50	-0.021124512
201	0x3d00a1e9	0.03140441
202	0x3c6b89ed	0.014376146
203	0x3c646726	0.013940608
204	0x3adb4252	0.0016728139
205	0xbb0297cc	-0.0019926904
206	0xbba079f1	-0.004897349
207	0x3e577eee	0.21044514
208	0x3cf6a680	0.03010869
209	0x3d38b55a	0.045094825
210	0xbc56326f	-0.013073548
211	0xbcfd5465	-0.030924032
212	0x3bd17adf	0.006392821
213	0xbcb97bd6	-0.022642057
214	0x3d173773	0.036918115
215	0xbe27c835	-0.16384967
216	0x3e32a7dd	0.17446847
217	0xbcb6f4b4	-0.02233348
218	0x3ba2675a	0.004956168
219	0x3d0532cb	0.032519143
220	0x3b6cc648	0.0036128927
221	0x3b8d6fe3	0.0043163165
222	0x3c13f3fa	0.0090303365
223	0x3ca0387f	0.01955819
224	0xbcf217e0	-0.0295524
225	0x3b493b64	0.0030705566
226	0x3da0438f	0.07825386
227	0x3e1049d1	0.14090659
228	0xbe70a61c	-0.23500866
229	0xbe9bdc24	-0.3044139
230	0xbe873dda	-0.26414376
231	0xbd4943ff	-0.04913711
232	0x3cb7d50c	0.022440456
233	0xbc64913f	-0.013950645
234	0xbd2169b7	-0.03940746
235	0xbd422e3c	-0.047407374
236	0xbc39340a	-0.011303911
237	0xbc7c290c	-0.015390646
238	0xbc3a066d	-0.011354071
239	0xbd3e8b55	-0.046519596
240	0x3f8a90c5	1.082543
241	0xbe7096e6	-0.23495063
242	0x3f562a8c	0.8365867
243	0xbf401f94	-0.75048184
244	0x37334f40	1.0687683e-05
245	0xbd454da6	-0.048169754
246	0x3ce592c3	0.028024083
247	0xbf4ed77d	-0.8079756
248	0xbb5055f4	-0.0031789513
249	0x3dad2297	0.08453863
250	0xbc95c400	-0.018281937
251	0x3aaa2bb4	0.0012982995
252	0x3b3880c2	0.0028152918
253	0xbe40645f	-0.18788289
254	0x3e4b480a	0.198517
255	0x3cd6b956	0.026211422
